outputs/baseline_lr_mcar0.6_beta0.1_lr0.01.pt (torch, 1978 bytes, 1 tensors)

linear.weight f4 [1, 49]
-0.5506971 -0.24942726 -0.31776366 -0.16021612 -0.17955008 -0.12766324 -0.25834346 -0.06276506
-0.10943276 0.060384326 -0.034415156 -0.06600294 0.07846617 0.056344714 0.048819087 0.069347635
0.003905203 0.02331407 0.079989545 -0.022260165 0.059788354 0.04175285 0.22387885 0.08378471
-0.01010372 -0.044308547 -0.07537378 0.09857479 -0.059564166 0.038917728 0.16203542 -0.018753955
0.004854051 0.02784567 0.03602622 0.011192782 -0.07323245 0.20978212 0.24521074 0.04302938
-0.22331321 0.21531731 -0.046963733 0.0017235271 0.019068312 0.16141018 -0.0031392428 -0.04728743
-0.05965508
00000000: 7cfa 0cbf dc69 7fbe ebb1 a2be b20f 24be
00000010: fadb 37be 27ba 02be 9845 84be f88a 80bd
00000020: 481e e0bd 8e55 773d e8f6 0cbd 8d2c 87bd
00000030: dfb2 a03d b7c9 663d 86f6 473d 2206 8e3d
00000040: 6fee 7f3b 26fd be3c 8fd1 a33d f35a b6bc
00000050: a2e4 743d 0905 2b3d 7f40 653e 5197 ab3d
00000060: 138a 25bc e17c 35bd 925d 9abd 94e1 c93d
00000070: 8ef9 73bd 3268 1f3d 9dec 253e e5a1 99bc
00000080: bb0e 9f3b 9a1c e43c 3b90 133d ee61 373c
00000090: e5fa 95bd 20d1 563e 8618 7b3e 933f 303d
000000a0: 38ac 64be 247c 5c3e 0b5d 40bd f9e7 e13a
000000b0: 2635 9c3c b648 253e c1bb 4dbb 77b0 41bd
000000c0: e358 74bd
