outputs/baseline_lr_mar0.3_beta0.1_lr0.01.pt (torch, 1972 bytes, 1 tensors)

linear.weight f4 [1, 49]
00000000: 40bb 8dbf b9b8 43bf bf7f 3ebf d58a f3be
00000010: de99 78be 5931 93be 12a9 1dbe 4aa7 26be
00000020: 86aa 94be 8b84 20be 2728 d5bb 0dc0 b93b
00000030: 78ee 44be 8a7c 453d 5e5a 9a3e 8a6b e93d
00000040: 0941 103d f722 03bd e568 0f3e 4317 23be
00000050: ade9 1c3e 929d 283e 1d78 843d 6497 2ebd
00000060: 5e16 713c 87bd 86bc 0449 073d ba99 113e
00000070: e0f5 23bd 354d 3bbe cb47 3a3c d205 1abe
00000080: 4f23 74bd 116c 083e a13d 4b3d 5c6c bd3d
00000090: 80e0 bdbd 76bc 253e ad76 873d 51d0 513e
000000a0: ba88 113e 2d60 cd3c b962 b7be 608f 1abe
000000b0: 7cf2 a83e 73f6 5ebd 1135 85bd fd9b 7b3c
000000c0: 47fb af3d
-1.1072769 -0.7645374 -0.74413675 -0.47566858 -0.24277446 -0.28748587 -0.15396526 -0.16274753
-0.2903635 -0.15675561 -0.0065050307 0.005668646 -0.19231594 0.048214473 0.3014707 0.113974646
0.035218272 -0.032015767 0.14004858 -0.15926842 0.15323515 0.16466358 0.06468222 -0.042624846
0.014714805 -0.016447796 0.033028618 0.14218798 -0.040029407 -0.18291171 0.011369656 -0.15041283
-0.059603985 0.13322474 0.04961932 0.092491835 -0.092713356 0.16185173 0.066144325 0.20489623
0.14212313 0.025070274 -0.35817507 -0.15093756 0.329975 -0.05443425 -0.06504262 0.015357015
0.08592849
