outputs/baseline_lr_mcar0.3_beta0.1_lr0.01.pt (torch, 1978 bytes, 1 tensors)

linear.weight f4 [1, 49]
-0.8772713 -0.6456331 -0.5116748 -0.35370418 -0.36827254 -0.20269683 -0.21490529 -0.20748152
-0.025970636 -0.016904837 0.09360176 -0.19172122 0.27711692 -0.011387041 0.047199685 0.07728779
0.06344763 -0.009640728 0.17704417 0.10965177 0.0013708924 -0.1447232 0.21110447 -0.0049878317
-0.055986613 -0.0034635165 -0.104746126 -0.08176289 0.028561987 0.0005030984 -0.050017834 0.1683969
-0.07245558 -0.0046193586 0.21852916 0.13550764 -0.09521191 0.20048283 0.14511286 -0.08094854
-0.26419988 -0.00050745386 -0.035815082 -0.0675734 0.1449228 0.23827069 -0.077343576 -0.09964072
0.32494462
00000000: da94 60bf 3648 25bf 1ffd 02bf b718 b5be
00000010: 388e bcbe c28f 4fbe 2210 5cbe 0976 54be
00000020: 5fc0 d4bc 037c 8abc 48b2 bf3d 9152 44be
00000030: 45e2 8d3e b690 3abc 7554 413d 1049 9e3d
00000040: d5f0 813d 25f4 1dbc 114b 353e 1b91 e03d
00000050: 84af b33a 5232 14be c52b 583e f770 a3bb
00000060: 3852 65bd 2afc 62bb 2385 d6bd 4d73 a7bd
00000070: d4fa e93c 5de2 033a 80df 4cbd 3d70 2c3e
00000080: 9763 94bd fd5d 97bb 1cc6 5f3e 84c2 0a3e
00000090: 76fe c2bd 5f4b 4d3e 7798 143e 59c8 a5bd
000000a0: 3545 87be a706 05ba d6b2 12bd ec63 8abd
000000b0: a466 143e 3bfd 733e 4f66 9ebd 6f10 ccbd
000000c0: 245f a63e
