outputs/baseline_lr_noise0.6_beta0.1_lr0.01.pt (torch, 1984 bytes, 1 tensors)

linear.weight f4 [1, 49]
0	0xc1088411	-8.532243
1	0xc08cdd93	-4.4020476
2	0xbfe9f22c	-1.827703
3	0x3f425c61	0.7592221
4	0x4047c428	3.1213474
5	0x3fadc749	1.3576442
6	0x3e58f93d	0.21188827
7	0x3e5ea176	0.2174128
8	0xbe0f0021	-0.13964893
9	0x3d61570c	0.055014655
10	0x3e2b4716	0.16726336
11	0xbe639a21	-0.22226764
12	0xbe8c2ed4	-0.27379477
13	0x3daee01e	0.08538841
14	0x3f1b3837	0.6063265
15	0xbd9e7290	-0.07736695
16	0x3e04f6f1	0.12984826
17	0x3eaa70e1	0.33289245
18	0xbdf05f65	-0.11736945
19	0xbeda0c98	-0.42587733
20	0x3ee9ab29	0.45638397
21	0xbdecf3b1	-0.11569918
22	0x3e8e8492	0.27835518
23	0xbe6336b3	-0.22188835
24	0x3ea00107	0.31250784
25	0xbe470db1	-0.19438817
26	0x3d939c10	0.07207501
27	0x3ca14c80	0.019689798
28	0xbdb62566	-0.08893852
29	0x3e1c5c29	0.15269531
30	0xbcb79904	-0.02241183
31	0xbf05a76b	-0.52208585
32	0x3f3f2c9a	0.7467743
33	0xbf1b6753	-0.60704535
34	0x3e1dc38a	0.15406623
35	0xbe5f4553	-0.21803789
36	0x3c8a96e4	0.016917653
37	0x3ec75f0b	0.389397
38	0x3e9849e2	0.29743868
39	0xbe55dd95	-0.20885308
40	0x3c2a349f	0.010388522
41	0x3e825ea7	0.2546284
42	0xbe0f1835	-0.13974078
43	0xbee56de2	-0.44810396
44	0x3ec3d7db	0.38250622
45	0xbcd5a9c1	-0.026081922
46	0x3e31fc19	0.17381324
47	0xbec36275	-0.38161054
48	0x3f1de879	0.6168285
