outputs/baseline_lr_mar0.6_beta0.1_lr0.01.pt (torch, 1972 bytes, 1 tensors)

linear.weight f4 [1, 49]
00000000: 236c e4be 9085 84be 9166 36be a46f 64be
00000010: 81ff 2ebd 6429 f0bc 18d4 45bd 4d8d 97bc
00000020: 0719 31be a49f ae3d 1612 92bd ee85 3f3d
00000030: 9fa4 bbbd 6a2e 2fbc 72fc 0d3e 0987 b83c
00000040: 3111 203e 7baa c13d 18e7 4fbd 6800 253d
00000050: 8011 9c3e ed5b 073e 65ed f23d 99b1 213e
00000060: c5c3 843d dc59 0dbe 2e8e a43c 08f8 cabc
00000070: c296 8e3d d5cb 4abd ca58 993c b8d2 58be
00000080: 48c3 863d f823 683e 450f e83d 9948 343d
00000090: 90fd 7ebd 6a6e 033e 3460 12be 69c9 0d3e
000000a0: 3c39 603d 96b1 253e fad8 75bd 8e80 03be
000000b0: 5b4b 263e 1ad9 77bc c5a8 f13c 5ba6 18bd
000000c0: f122 803e
-0.44613752 -0.2588315 -0.17812563 -0.22308213 -0.042724136 -0.029316612 -0.04829797 -0.018499995
-0.17294703 0.08526543 -0.07132356 0.046758585 -0.09162258 -0.010692218 0.13865831 0.022525327
0.15631558 0.09456345 -0.050757498 0.04028359 0.304821 0.1321866 0.11861686 0.15790404
0.064826526 -0.1380381 0.020087328 -0.024776474 0.069623485 -0.049510796 0.018719096 -0.21174133
0.06580216 0.22669971 0.113310374 0.044014547 -0.062253535 0.12835088 -0.14294511 0.13846363
0.054742083 0.16181025 -0.060021378 -0.12842008 0.16239683 -0.015127445 0.02949942 -0.037268024
0.25026658
