outputs/baseline_mlp_noise0.6_beta0.1_lr0.0001.pt (torch, 3976 bytes, 3 tensors)

fc1.weight f4 [128, 1]
-0.1901047 -0.56035924 -0.91650033 0.9461906 -0.29861522 0.4403273 -0.37608135 0.29190683
-0.4621674 0.86060464 -0.1789273 -0.84792787 0.3802166 -0.3118008 0.8196853 -0.66707885
-0.09831345 0.3231107 -0.9538771 0.5143801 0.89773136 0.90992814 0.42778182 0.17647599
0.6923294 -0.5282917 0.646908 -0.56526816 -0.22171974 0.09884246 -0.45352232 0.39810246
0.84476566 -0.48300207 -0.36921865 0.9857886 0.62480545 0.5561193 0.23349302 -0.9419279
-0.43559292 0.028496075 0.35794687 0.44519913 0.12611587 0.86500746 0.6341954 -0.90579253
0.69093424 -0.78852963 0.2566322 0.52053624 0.6961389 0.44344473 0.13929701 -0.2300024
-0.323179 0.09909284 0.9530523 0.5329354 -0.29683703 0.16316056 -0.43992645 0.67914176
0.46076643 0.33594263 0.488047 -0.9975836 -0.38206065 -0.07299784 0.874125 0.10779428
0.2253685 0.7018978 -0.03851126 -0.34912598 -0.6790887 -0.8857089 0.80961 0.37273803
-0.7082773 -0.8995917 0.4850968 0.9466244 0.48421723 0.689495 -0.74865127 0.6723403
-0.9572698 -0.12824842 -0.15068161 0.28187975 0.5931145 0.2894479 -0.71023476 -0.37580085
0.24307923 0.20299804 0.12777388 0.21778017 0.6838593 0.5098628 -0.339213 0.8584814
0.6240936 -0.8604758 -0.88678205 -0.22545724 0.42088503 -0.83968616 0.6232675 -0.94105816
-0.16687386 -0.65657246 0.82955915 0.3320371 -0.2561995 0.4450247 0.14965819 0.752778
-0.49884176 -0.45060492 -0.5260078 0.9280813 -0.8692354 0.016203195 -0.33761093 -0.4489261
00000000: ceaa 42be b473 0fbf c49f 6abf 8c39 723f
00000010: 18e4 98be 9472 e13e bc8d c0be d074 953e
00000020: 35a1 ecbe 9650 5c3f b838 37be cd11 59bf
00000030: c0ab c23e 5ba4 9fbe e5d6 513f aec5 2abf
00000040: 9058 c9bd c46e a53e 4a31 74bf 6aae 033f
00000050: b9d1 653f 0df1 683f 3806 db3e 1fb6 343e
00000060: 803c 313f 203e 07bf c39b 253f 6ab5 10bf
00000070: 800a 63be ea6d ca3d 1434 e8be 16d4 cb3e
00000080: 9042 583f 0c4c f7be 3a0a bdbe a45c 7c3f
00000090: 40f3 1f3f d65d 0e3f cb18 6f3e 3022 71bf
000000a0: 0906 dfbe 9a70 e93c d044 b73e 24f1 e33e
000000b0: 8524 013e 2171 5d3f a15a 223f 05e2 67bf
000000c0: 11e1 303f 14dd 49bf 4c65 833e dd41 053f
000000d0: 2936 323f 300b e33e e0a3 0e3e c085 6bbe
000000e0: b877 a5be 30f1 ca3d 3cfb 733f 746e 083f
000000f0: 06fb 97be 9013 273e 0a3e e1be 3cdc 2d3f
00000100: 94e9 eb3e ac00 ac3e 4ce1 f93e a461 7fbf
00000110: 749d c3be e47f 95bd a8c6 5f3f 3fc3 dc3d
00000120: 00c7 663e 93af 333f fcbd 1dbd a4c0 b2be
00000130: c2d8 2dbf d2bd 62bf 9a42 4f3f 85d7 be3e
00000140: a951 35bf a44b 66bf 9c5e f83e fa55 723f
00000150: 52eb f73e bf82 303f 9ca7 3fbf 7e1e 2c3f
00000160: a20f 75bf 8e53 03be 484c 1abe 8b52 903e
00000170: 5ad6 173f 8432 943e f2d1 35bf f868 c0be
00000180: c3e9 783e b8de 4f3e 28d7 023e c401 5f3e
00000190: 6711 2f3f 5e86 023f 54ad adbe 70c5 5b3f
000001a0: 99c4 1f3f 2448 5cbf 2604 63bf 43de 66be
000001b0: 3e7e d73e acf5 56bf 758e 1f3f 30e9 70bf
000001c0: fbe0 2abe 2215 28bf fd5d 543f c400 aa3e
000001d0: 952c 83be 47da e33e ff3f 193e 0fb6 403f
000001e0: 3068 ffbe b0b5 e6be 72a8 06bf bc96 6d3f
000001f0: 3686 5ebf 90bc 843c 57db acbe a4d9 e5be

fc1.bias f4 [128]
0.22038987 -0.09524965 0.8835839 0.958743 -0.29885566 -0.6529944 -0.19410634 0.74967927
0.89444613 0.7754451 -0.49141002 0.35753733 0.24988663 0.50547254 -0.08067659 -0.71994674
-0.79583013 0.84664756 -0.9392222 -0.8066995 -0.10628261 -0.7205114 -0.48865783 0.34978306
-0.21875279 -0.46768594 -0.64767325 0.22135754 -0.93598413 0.24050191 -0.26167655 0.17702818
-0.210383 -0.9972335 0.69704604 -0.105810516 -0.69077325 -0.70189536 0.90210986 -0.9963274
0.13245805 0.29097 0.07554365 -0.93964744 0.91186315 -0.116849944 -0.06958172 0.35592586
0.89072 -0.31424224 -0.46652555 0.9783111 0.3047072 0.48128712 -0.30643559 -0.8239354
-0.48146772 -0.5544549 -0.5539903 -0.55322695 0.48256963 0.2753108 0.34339273 -0.92068064
0.8261442 -0.5255965 0.6597474 -0.15259445 -0.7485548 0.49329364 0.31947196 0.36951238
0.4146941 0.22044091 0.23007043 -0.6927028 -0.353575 0.3342424 -0.04788604 -0.17292295
0.42479497 0.31764764 -0.7676017 -0.5766539 0.49243668 0.25026548 -0.80676746 -0.0022589783
-0.36778975 0.6784342 -0.35430443 0.117917925 -0.36099535 -0.6914474 0.9597745 -0.9878293
0.5805318 -0.8691051 -0.24420881 0.15485604 0.48869777 0.028859956 -0.99809134 0.6077682
0.9025765 -0.3191886 -0.5378736 0.44828764 0.97122216 -0.14165044 0.91827697 -0.039004207
0.15979013 0.7551113 -0.0054964013 0.06567247 0.9261292 -0.090651914 -0.039292146 0.9824113
-0.37539458 -0.3049854 -0.21761966 0.9075318 -0.15615296 0.5600075 0.097508825 -0.16594577
00000000: e2ad 613e 4012 c3bd 8e32 623f 2e70 753f
00000010: 9c03 99be a42a 27bf d0c3 46be fbea 3f3f
00000020: 6cfa 643f 9283 463f 189a fbbe 220f b73e
00000030: 48e2 7f3e a666 013f c539 a5bd 6e4e 38bf
00000040: 86bb 4bbf e5bd 583f de70 70bf dc83 4ebf
00000050: b2aa d9bd 6f73 38bf 5c31 fabe c416 b33e
00000060: bb00 60be 8874 efbe eacd 25bf 8dab 623e
00000070: a89c 6fbf 2246 763e 78fa 85be e046 353e
00000080: a46e 57be b24a 7fbf 9c71 323f 2fb3 d8bd
00000090: 84d6 30bf 6aaf 33bf acf0 663f 500f 7fbf
000000a0: 15a3 073e 05fa 943e a1b6 9a3d bc8c 70bf
000000b0: dd6f 693f 064f efbd dc80 8ebd ea3b b63e
000000c0: 3a06 643f 5ce4 a0be 70dc eebe 9972 7a3f
000000d0: 9502 9c3e 446b f63e 20e5 9cbe 6eed 52bf
000000e0: f082 f6be c2f0 0dbf 4fd2 0dbf 48a0 0dbf
000000f0: 5e13 f73e 8af5 8c3e 2cd1 af3e bab1 6bbf
00000100: 307e 533f 7e8d 06bf 35e5 283f b841 1cbe
00000110: 4aa1 3fbf fc90 fc3e d491 a33e ba30 bd3e
00000120: c952 d43e 43bb 613e 9597 6b3e f854 31bf
00000130: c807 b5be d221 ab3e 2724 44bd b712 31be
00000140: ba7e d93e b6a2 a23e 8c81 44bf 979f 13bf
00000150: a920 fc3e cc22 803e 5088 4ebf 5e0b 14bb
00000160: f04e bcbe ddad 2d3f 6467 b5be f47e f13d
00000170: 62d4 b8be b202 31bf c8b3 753f 62e2 7cbf
00000180: bb9d 143f ac7d 5ebf e011 7abe 9592 1e3e
00000190: 9836 fa3e b76b ec3c ea82 7fbf b296 1b3f
000001a0: 410f 673f b06c a3be 16b2 09bf f585 e53e
000001b0: 04a2 783f d00c 11be 3314 6b3f e0c2 1fbd
000001c0: 06a0 233e f94e 413f 281b b4bb 4a7f 863d
000001d0: ce16 6d3f b6a7 b9bd cdf0 20bd 4f7f 7b3f
000001e0: b833 c0be 0c27 9cbe b0d7 5ebe 0154 683f
000001f0: 90e6 1fbe a75c 0f3f b5b2 c73d b0ed 29be

fc2.weight f4 [1, 128]
0.08032551 0.07952855 -0.09006625 -0.05486946 -0.017386504 0.07302233 0.03365136 0.0807142
0.020129904 0.07854366 -0.027422953 -0.042456713 0.07729143 -0.04415321 -0.027156804 0.07836466
-0.026879985 0.050769396 0.00031413883 -0.021745585 0.0756997 0.17570968 -0.018308423 -0.036204066
0.026636966 -0.013348371 -0.033887777 0.010536599 -0.0647049 0.019992841 -0.0756215 -0.08773114
-0.086359784 0.07562555 -0.019409327 -0.06315103 -0.06392066 -0.03264347 -0.091349445 -0.054171763
0.00030322658 -0.035342835 -0.052962326 0.029165015 -0.072843924 -0.017379519 0.069563314 0.032225326
0.051700618 -0.008425429 -0.02414912 -0.031863816 0.03108583 0.028382648 0.08733415 0.08433909
-0.012671545 -0.02148246 -0.09117739 0.045086436 -0.093024 0.07801909 0.05982995 0.072090514
-0.041395232 -0.0065048262 -0.027318882 0.07132713 0.07072114 0.02932764 -0.08289019 0.061947018
-0.06914498 0.004270215 0.028512923 -0.046041943 0.08303682 -0.035364542 -0.046306726 0.0020300397
-0.017787656 -0.04358567 0.0809821 -0.15044765 0.015029642 -0.024459591 -0.079445526 0.018286662
-0.00058371574 -0.0082496395 0.043379076 0.0541461 -0.17542644 -0.069191225 0.04526831 0.011470117
-0.068026185 -0.024407148 -0.019947052 0.01090284 -0.0037850372 -0.014404688 0.08161964 -0.0134599265
-0.0100444015 0.012452915 -0.008474655 -0.07058094 0.03851658 0.021509685 0.06285421 0.024829097
-0.036348443 0.069050394 -0.046063144 -0.04884223 -0.0015478685 -0.084780216 -0.06915102 0.05262676
0.083517514 0.07593907 -0.07432898 0.05809817 -0.005392961 -0.05715205 -0.02890824 0.040430464
00000000: b381 a43d dddf a23d a774 b8bd cdbe 60bd
00000010: 246e 8ebc bb8c 953d 02d6 093d 7d4d a53d
00000020: 78e7 a43c 80db a03d 1aa6 e0bc 17e7 2dbd
00000030: f84a 9e3d ffd9 34bd f277 debc a77d a03d
00000040: 6a33 dcbc 92f3 4f3d 00b3 a439 cc23 b2bc
00000050: 7208 9b3d 3ded 333e 8cfb 95bc b74a 14bd
00000060: c435 da3c 20b3 5abc e9cd 0abd b3a1 2c3c
00000070: 0184 84bd 07c8 a33c 72df 9abd 62ac b3bd
00000080: 66dd b0bd 91e1 9a3d 4f00 9fbc 5455 81bd
00000090: d6e8 82bd 29b5 05bd 6b15 bbbd 36e3 5dbd
000000a0: 62fa 9e39 a6c3 10bd 06ef 58bd 78eb ee3c
000000b0: 322f 95bd 7e5f 8ebc 3677 8e3d b4fe 033d
000000c0: 07c4 533d d00a 0abc 60d4 c5bc a283 02bd
000000d0: b6a7 fe3c ba82 e83c 3fdc b23d f9b9 ac3d
000000e0: 509c 4fbc fcfb afbc 36bb babd 8eac 383d
000000f0: 5e83 bebd 79c8 9f3d 4010 753d 31a4 933d
00000100: 0c8e 29bd 7026 d5bb d9cb dfbc f513 923d
00000110: 3fd6 903d 8540 f03c 55c2 a9bd 28bc 7d3d
00000120: e29b 8dbd 29ed 8b3b ef93 e93c 7a96 3cbd
00000130: 350f aa3d 69da 10bd 1fac 3dbd 6a0a 053b
00000140: 6bb7 91bc e386 32bd f1d9 a53d f30e 1abe
00000150: e33e 763c 7b5f c8bc 56b4 a2bd e9cd 953c
00000160: 8004 19ba 7f29 07bc 42ae 313d 4dc8 5d3d
00000170: fda2 33be 21b4 8dbd 436b 393d 28ed 3b3c
00000180: 5051 8bbd 80f1 c7bc 0068 a3bc d3a1 323c
00000190: 630e 78bb a401 6cbc 3328 a73d 0687 5cbc
000001a0: 4691 24bc 5007 4c3c 48d9 0abc bd8c 90bd
000001b0: 90c3 1d3d 1435 b03c b5b9 803d 6466 cb3c
000001c0: 1be2 14bd 4b6a 8d3d b5ac 3cbd ca0e 48bd
000001d0: d9e1 caba 40a1 adbd 0d9f 8dbd 288f 573d
000001e0: 3b0b ab3d f185 9b3d cb39 98bd 59f8 6d3d
000001f0: 70b7 b0bb 4518 6abd f9d0 ecbc 6a9a 253d
