outputs/baseline_lr_mnar0.3_beta0.1_lr0.01.pt (torch, 1978 bytes, 1 tensors)

linear.weight f4 [1, 49]
000000 fd 1d a5 bc 6d a6 86 bc dd 93 09 3d bb 47 3e bd
       -0.020155901 -0.01643678 0.03358828 -0.046455126
000010 ff 84 72 3b f5 6e 77 bd 5b 36 24 3d 92 09 87 bd
       0.0037005541 -0.06040855 0.0400909 -0.06593622
000020 63 d7 b9 bd b3 8d c5 bc 05 94 9e bc be 92 b4 bd
       -0.09074285 -0.024115419 -0.01935769 -0.08817051
000030 e5 b0 67 bd 04 01 e1 3c 53 9a 41 3c 00 df 1d 3d
       -0.056565184 0.027466305 0.011816579 0.038542747
000040 f2 44 6a 3b 8f d4 5b 3d ad f8 b8 3c ce a8 39 3d
       0.003574666 0.05366951 0.022579515 0.045327
000050 0c 1b 40 ba 94 f5 e1 3a c0 d7 e0 3c 06 55 c9 ba
       -0.0007328249 0.0017239326 0.027446628 -0.0015360422
000060 5f 7f 55 3d c7 49 2d bd a9 31 71 3d 14 18 c9 3d
       0.052123424 -0.042306688 0.05888525 0.09819046
000070 3d 00 99 3d c0 82 01 3d 79 77 54 bb 16 45 d1 bd
       0.074707486 0.031618834 -0.0032419844 -0.10218255
000080 8e b5 44 bc 04 ee a7 bd e5 fe a3 3d 77 e3 41 be
       -0.012006177 -0.08199695 0.08007602 -0.18934427
000090 cc 7a 88 3d 75 3e 82 3d 13 f5 28 bd 64 e4 3e bc
       0.06664047 0.06359569 -0.041249346 -0.011651132
0000a0 ad cd a2 bc be 67 21 bd 44 30 0a 3d d8 06 6c bd
       -0.019873464 -0.039405577 0.033737436 -0.057623714
0000b0 4e e4 d6 bc 9b cf d5 3d 32 58 0f bd 6b 44 00 3d
       -0.026231911 0.10439988 -0.03499622 0.03131525
0000c0 01 04 ed 3d
       0.11573029
