outputs/baseline_lr_mnar0.6_beta0.1_lr0.01.pt (torch, 1978 bytes, 1 tensors)

linear.weight f4 [1, 49]
0	0x3f886c22	1.0658
1	0x3f580212	0.8437816
2	0x3f2b25df	0.6685466
3	0x3ef120ca	0.4709533
4	0x3eb6db34	0.35714114
5	0x3e38bbff	0.18040465
6	0x3e330a6a	0.17484441
7	0x3d402d41	0.046918157
8	0x3e38efef	0.18060277
9	0x3db708c1	0.089372166
10	0xbdc2c968	-0.095110714
11	0xbd93fd71	-0.072260745
12	0xbdc71036	-0.09719889
13	0xbd4bca1a	-0.049753286
14	0xbe52145c	-0.20515579
15	0xbcb979df	-0.02264112
16	0x3e27f404	0.16401678
17	0x3d22f628	0.039785534
18	0x3ad66e67	0.0016359807
19	0xbd2480dc	-0.040161952
20	0xbe355323	-0.17707495
21	0xbe04e6f1	-0.12978722
22	0xbdca64a7	-0.09882479
23	0xbe42e84a	-0.19033924
24	0xbe0576d2	-0.13033608
25	0x3c300748	0.0107439235
26	0xbd692006	-0.056915306
27	0xbe902f4c	-0.28161085
28	0xbc902f26	-0.017600607
29	0xbdc4a7c3	-0.096023105
30	0xbd6738f3	-0.056450795
31	0xbe55a5e7	-0.20864068
32	0xbdb88d63	-0.090113424
33	0xbdb04603	-0.08607104
34	0x3caffca2	0.02148277
35	0xbd9afb30	-0.075674415
36	0x3e2ba345	0.16761501
37	0xbe905d1b	-0.28196034
38	0xbc9af791	-0.018916877
39	0x3d46bc3e	0.048519365
40	0x3cb18d5f	0.021673856
41	0xbe40ed41	-0.18840505
42	0xbea22006	-0.31665057
43	0xbdea0817	-0.11427324
44	0x3d40506d	0.0469517
45	0x3e3f52ab	0.18683879
46	0xbe80f41e	-0.25186247
47	0xbd1b5824	-0.037925854
48	0x3db7c33a	0.089727834
