outputs/baseline_lr_noise0.6_beta0.1_lr0.01.pt (torch, 1984 bytes, 1 tensors)

linear.weight f4 [1, 49]
00000000: 4150 07c1 3d8c 8cc0 d0fc e5bf d2bb 463f
00000010: 3458 3e40 bc75 af3f 4a4d 803e 434c 4b3e
00000020: 671d 36be afc1 083e 013f b53d 7deb 2dbe
00000030: 342d 99be 7f02 b33d 5c9d 1e3f fc11 adbd
00000040: effc 073e 498c a33e 8d88 bebd 62b1 e2be
00000050: 9491 ec3e 1bb1 0abe 255d 9a3e 6f61 57be
00000060: 02dd 913e 911d 44be 9a2f b83d 81c1 2639
00000070: 2820 52bd 0fb0 c03d bef9 013d 5976 0dbf
00000080: 9e3a 403f 914a 16bf b122 f03d ad41 2abe
00000090: 2643 f3bc 93ae d03e e9bd 993e aaca 5ebe
000000a0: 91da ad3c adba 783e f2d4 04be 8fef e9be
000000b0: 55f1 c93e d0b2 1abd 4564 3b3e 9879 c7be
000000c0: 9143 1e3f
-8.457093 -4.392119 -1.7967777 0.7763034 2.9741335 1.3707805 0.25058967 0.1985331
-0.17784654 0.13355134 0.08849908 -0.16984363 -0.299173 0.087407105 0.6195886 -0.08450696
0.1328008 0.31942967 -0.09303389 -0.44275957 0.46204817 -0.13544123 0.3014919 -0.21033262
0.28488928 -0.19151904 0.08993454 0.0001590308 -0.051300198 0.094085805 0.031732313 -0.5525871
0.7508944 -0.5870753 0.11725367 -0.16626616 -0.029695105 0.4075819 0.30027702 -0.21756998
0.021222385 0.24289961 -0.12971857 -0.4569058 0.39441934 -0.037768185 0.18299969 -0.38959956
0.6182185
